RT-AK/rt_ai_tools/Models/yolo-s.tflite (tflite, 146656 bytes, 25 tensors)

model/conv2d/Conv2D i1 [8, 3, 3, 1]
0	0x0d	13
1	0x7a	122
2	0x28	40
3	0x81	-127
4	0x0a	10
5	0x72	114
6	0xb6	-74
7	0x88	-120
8	0x0f	15
9	0xbc	-68
10	0xf7	-9
11	0x32	50
12	0x81	-127
13	0x23	35
14	0x61	97
15	0xd8	-40
16	0x24	36
17	0x19	25
18	0x3f	63
19	0x32	50
20	0x29	41
21	0x1e	30
22	0x1a	26
23	0x7f	127
24	0xf1	-15
25	0xe2	-30
26	0x3d	61
27	0x14	20
28	0x7f	127
29	0xfe	-2
30	0xf0	-16
31	0x4f	79
32	0xc2	-62
33	0xb4	-76
34	0xd4	-44
35	0xe4	-28
36	0x05	5
37	0x38	56
38	0xeb	-21
39	0x06	6
40	0x22	34
41	0xc6	-58
42	0xf5	-11
43	0x81	-127
44	0xa2	-94
45	0x02	2
46	0x9d	-99
47	0xf6	-10
48	0xfb	-5
49	0x81	-127
50	0x5a	90
51	0x06	6
52	0xd7	-41
53	0x2c	44
54	0xcd	-51
55	0xcd	-51
56	0xe6	-26
57	0xd9	-39
58	0xe0	-32
59	0x81	-127
60	0xf7	-9
61	0x29	41
62	0xd4	-44
63	0x27	39
64	0x3c	60
65	0x4e	78
66	0x32	50
67	0xcc	-52
68	0x06	6
69	0xe0	-32
70	0x81	-127
71	0xe4	-28

model/conv2d_1/Conv2D i1 [8, 1, 1, 8]
0	0xa7	-89
1	0x7f	127
2	0x19	25
3	0xf3	-13
4	0xc7	-57
5	0x4d	77
6	0xed	-19
7	0xdc	-36
8	0xc3	-61
9	0x7f	127
10	0xd8	-40
11	0xef	-17
12	0xbc	-68
13	0x2f	47
14	0x23	35
15	0xde	-34
16	0xfc	-4
17	0x03	3
18	0x8d	-115
19	0xf7	-9
20	0x4f	79
21	0x14	20
22	0x7f	127
23	0x10	16
24	0x0f	15
25	0x17	23
26	0x01	1
27	0x7f	127
28	0x25	37
29	0xc9	-55
30	0x0e	14
31	0x89	-119
32	0x81	-127
33	0xc2	-62
34	0xf2	-14
35	0xea	-22
36	0x0f	15
37	0xee	-18
38	0x3c	60
39	0xe1	-31
40	0x06	6
41	0x03	3
42	0x82	-126
43	0xf8	-8
44	0x31	49
45	0x12	18
46	0x7f	127
47	0x00	0
48	0x96	-106
49	0xeb	-21
50	0xfc	-4
51	0x4d	77
52	0x58	88
53	0xa9	-87
54	0x06	6
55	0x7f	127
56	0xff	-1
57	0xf7	-9
58	0x14	20
59	0x81	-127
60	0xde	-34
61	0x3f	63
62	0xe9	-23
63	0x77	119

model/conv2d_2/Conv2D i1 [4, 1, 1, 8]
0	0x66	102
1	0x6c	108
2	0x27	39
3	0xfa	-6
4	0xc3	-61
5	0x5f	95
6	0x7f	127
7	0x03	3
8	0xf5	-11
9	0xee	-18
10	0x23	35
11	0xed	-19
12	0x05	5
13	0x81	-127
14	0x2a	42
15	0xed	-19
16	0x72	114
17	0x7a	122
18	0x81	-127
19	0xf5	-11
20	0x8b	-117
21	0xc5	-59
22	0xd4	-44
23	0xfc	-4
24	0xfa	-6
25	0xfc	-4
26	0x1a	26
27	0x81	-127
28	0xde	-34
29	0xfa	-6
30	0x29	41
31	0x89	-119

model/conv2d_3/Conv2D i1 [8, 3, 3, 4]
0	0xfa	-6
1	0x15	21
2	0xf8	-8
3	0xf3	-13
4	0xda	-38
5	0xeb	-21
6	0xdd	-35
7	0x0e	14
8	0x31	49
9	0x04	4
10	0xce	-50
11	0xe5	-27
12	0xf9	-7
13	0xf6	-10
14	0xe1	-31
15	0xf5	-11
16	0xdc	-36
17	0xce	-50
18	0xc7	-57
19	0x24	36
20	0x7f	127
21	0xce	-50
22	0xa3	-93
23	0xca	-54
24	0xf7	-9
25	0xd8	-40
26	0xe4	-28
27	0x06	6
28	0x07	7
29	0xf9	-7
30	0xda	-38
31	0x0c	12
32	0x44	68
33	0xfd	-3
34	0xdd	-35
35	0xd8	-40
36	0xfa	-6
37	0x07	7
38	0xff	-1
39	0x04	4
40	0xf0	-16
41	0xdc	-36
42	0x03	3
43	0xd9	-39
44	0xe9	-23
45	0xf9	-7
46	0xec	-20
47	0x37	55
48	0xea	-22
49	0x04	4
50	0x02	2
51	0x0c	12
52	0xd5	-43
53	0xde	-34
54	0x15	21
55	0x8b	-117
56	0xe1	-31
57	0xb6	-74
58	0xda	-38
59	0x7f	127
60	0xeb	-21
61	0xf6	-10
62	0x03	3
63	0x17	23
64	0xe3	-29
65	0x0e	14
66	0x19	25
67	0x98	-104
68	0xe4	-28
69	0xee	-18
70	0x00	0
71	0x4a	74
72	0xfa	-6
73	0x0b	11
74	0xf2	-14
75	0xf9	-7
76	0xde	-34
77	0xf3	-13
78	0xec	-20
79	0xd4	-44
80	0xf4	-12
81	0x18	24
82	0xf9	-7
83	0x07	7
84	0xe7	-25
85	0xf2	-14
86	0xe8	-24
87	0x11	17
88	0x09	9
89	0xcf	-49
90	0xb4	-76
91	0x81	-127
92	0xdf	-33
93	0x70	112
94	0x06	6
95	0xf2	-14
96	0xe3	-29
97	0xeb	-21
98	0xf9	-7
99	0x15	21
100	0x27	39
101	0xcb	-53
102	0xbf	-65
103	0xac	-84
104	0x00	0
105	0x2c	44
106	0xeb	-21
107	0xf5	-11
108	0xef	-17
109	0x0c	12
110	0xe1	-31
111	0xe9	-23
112	0xca	-54
113	0xf3	-13
114	0xcd	-51
115	0x13	19
116	0x14	20
117	0x12	18
118	0xd3	-45
119	0xf2	-14
120	0xda	-38
121	0x23	35
122	0xd6	-42
123	0xdd	-35
124	0x94	-108
125	0x7f	127
126	0xd3	-45
127	0x07	7
128	0x20	32
129	0x45	69
130	0xbd	-67
131	0xcf	-49
132	0xe1	-31
133	0x13	19
134	0xee	-18
135	0xf6	-10
136	0xcc	-52
137	0x7d	125
138	0xed	-19
139	0x02	2
140	0x0a	10
141	0x49	73
142	0xe3	-29
143	0xdc	-36
144	0x2c	44
145	0x1a	26
146	0x2c	44
147	0x02	2
148	0xd0	-48
149	0xe8	-24
150	0x52	82
151	0x14	20
152	0x2a	42
153	0x2e	46
154	0x1e	30
155	0xfe	-2
156	0x09	9
157	0x14	20
158	0x5e	94
159	0xfb	-5
160	0xd3	-45
161	0x9e	-98
162	0x7c	124
163	0x40	64
164	0x7f	127
165	0x3e	62
166	0x3d	61
167	0x0b	11
168	0xc6	-58
169	0xfd	-3
170	0x41	65
171	0x07	7
172	0x17	23
173	0xb7	-73
174	0x2b	43
175	0x24	36
176	0x6e	110
177	0x13	19
178	0x11	17
179	0x1a	26
180	0xfd	-3
181	0xdf	-33
182	0xeb	-21
183	0x08	8
184	0x09	9
185	0xf4	-12
186	0xc4	-60
187	0x09	9
188	0xe2	-30
189	0x03	3
190	0xf4	-12
191	0xf8	-8
192	0xe3	-29
193	0x2d	45
194	0x14	20
195	0xef	-17
196	0x00	0
197	0xad	-83
198	0x9c	-100
199	0x3d	61
200	0xdc	-36
201	0xfa	-6
202	0xd5	-43
203	0xec	-20
204	0xd7	-41
205	0x7f	127
206	0x32	50
207	0xcf	-49
208	0xc6	-58
209	0x2b	43
210	0x03	3
211	0x1f	31
212	0xf3	-13
213	0x10	16
214	0xe8	-24
215	0xe4	-28
216	0x02	2
217	0xec	-20
218	0x05	5
219	0x16	22
220	0x39	57
221	0x03	3
222	0xfa	-6
223	0xf3	-13
224	0x30	48
225	0x1d	29
226	0xf7	-9
227	0x12	18
228	0x0c	12
229	0x12	18
230	0x19	25
231	0x12	18
232	0x7f	127
233	0x31	49
234	0xf6	-10
235	0xcd	-51
236	0x5c	92
237	0x1b	27
238	0xd7	-41
239	0x21	33
240	0x14	20
241	0x2e	46
242	0x18	24
243	0x04	4
244	0x3b	59
245	0x4e	78
246	0x12	18
247	0xd8	-40
248	0x22	34
249	0x22	34
250	0xeb	-21
251	0x19	25
252	0xfc	-4
253	0xf8	-8
254	0x07	7
255	0x12	18

model/conv2d_4/Conv2D i1 [48, 1, 1, 8]
0	0x25	37
1	0xc4	-60
2	0x11	17
3	0x48	72
4	0x10	16
5	0xfd	-3
6	0x36	54
7	0x7f	127
8	0xe9	-23
9	0x36	54
10	0xd3	-45
11	0xed	-19
12	0xfb	-5
13	0x7f	127
14	0xeb	-21
15	0x03	3
16	0xdf	-33
17	0xa8	-88
18	0x81	-127
19	0x81	-127
20	0x64	100
21	0x0d	13
22	0xde	-34
23	0xc0	-64
24	0x2c	44
25	0x81	-127
26	0x77	119
27	0xa9	-87
28	0x13	19
29	0x68	104
30	0xe0	-32
31	0xbc	-68
32	0x29	41
33	0x41	65
34	0x14	20
35	0x53	83
36	0x63	99
37	0x0d	13
38	0x81	-127
39	0x00	0
40	0xbc	-68
41	0xdb	-37
42	0xbc	-68
43	0x99	-103
44	0x7f	127
45	0xb9	-71
46	0x28	40
47	0xf5	-11
48	0xb8	-72
49	0x1b	27
50	0xec	-20
51	0xe4	-28
52	0xff	-1
53	0x10	16
54	0x81	-127
55	0x18	24
56	0xde	-34
57	0x24	36
58	0x06	6
59	0x0e	14
60	0x0b	11
61	0xed	-19
62	0x19	25
63	0x81	-127
64	0x10	16
65	0xcd	-51
66	0xef	-17
67	0xc1	-63
68	0xe9	-23
69	0x1a	26
70	0x06	6
71	0x7f	127
72	0xbb	-69
73	0x55	85
74	0xeb	-21
75	0xfd	-3
76	0x10	16
77	0xfc	-4
78	0x0c	12
79	0x81	-127
80	0x99	-103
81	0x55	85
82	0xf1	-15
83	0x03	3
84	0xf4	-12
85	0x03	3
86	0x01	1
87	0x81	-127
88	0x33	51
89	0x7b	123
90	0x81	-127
91	0x43	67
92	0xd2	-46
93	0xf4	-12
94	0x02	2
95	0x0c	12
96	0x18	24
97	0xe4	-28
98	0x4c	76
99	0xe0	-32
100	0xee	-18
101	0xf4	-12
102	0x15	21
103	0x7f	127
104	0x2a	42
105	0x81	-127
106	0x86	-122
107	0x1d	29
108	0x11	17
109	0x16	22
110	0x99	-103
111	0xd9	-39
112	0xb5	-75
113	0x7f	127
114	0x51	81
115	0xd9	-39
116	0xdf	-33
117	0xde	-34
118	0x3e	62
119	0xd1	-47
120	0x20	32
121	0x3e	62
122	0x3e	62
123	0x7e	126
124	0x82	-126
125	0x1e	30
126	0x81	-127
127	0xf4	-12
128	0x03	3
129	0xb7	-73
130	0x06	6
131	0xbc	-68
132	0x02	2
133	0xb4	-76
134	0x7f	127
135	0xd5	-43
136	0xfb	-5
137	0xca	-54
138	0xcd	-51
139	0x26	38
140	0xea	-22
141	0x06	6
142	0xf3	-13
143	0x81	-127
144	0x7f	127
145	0x49	73
146	0xb9	-71
147	0xbd	-67
148	0xe3	-29
149	0x16	22
150	0xf5	-11
151	0xf4	-12
152	0x1a	26
153	0x4b	75
154	0x81	-127
155	0x50	80
156	0xdd	-35
157	0xb0	-80
158	0x06	6
159	0x1b	27
160	0xc9	-55
161	0x94	-108
162	0x7f	127
163	0xc8	-56
164	0xf9	-7
165	0x09	9
166	0xee	-18
167	0xe2	-30
168	0x0e	14
169	0xd4	-44
170	0x06	6
171	0x81	-127
172	0x45	69
173	0xae	-82
174	0x6b	107
175	0x54	84
176	0x91	-111
177	0xe6	-26
178	0x11	17
179	0x7f	127
180	0x3f	63
181	0x0c	12
182	0x45	69
183	0x4b	75
184	0x84	-124
185	0x7f	127
186	0x62	98
187	0xd3	-45
188	0xfc	-4
189	0x11	17
190	0x37	55
191	0x8f	-113
192	0xc1	-63
193	0xd8	-40
194	0x72	114
195	0xb6	-74
196	0xff	-1
197	0x7f	127
198	0xa9	-87
199	0xe4	-28
200	0x7f	127
201	0x03	3
202	0x16	22
203	0x82	-126
204	0xcf	-49
205	0xee	-18
206	0xd2	-46
207	0xbe	-66
208	0x4b	75
209	0xc4	-60
210	0x1e	30
211	0x07	7
212	0x11	17
213	0xd9	-39
214	0x7f	127
215	0xd4	-44
216	0x90	-112
217	0xd3	-45
218	0x81	-127
219	0x9d	-99
220	0x61	97
221	0xcc	-52
222	0x10	16
223	0x0d	13
224	0x77	119
225	0x02	2
226	0x00	0
227	0x81	-127
228	0xd4	-44
229	0x08	8
230	0xde	-34
231	0xda	-38
232	0xb6	-74
233	0x32	50
234	0xc1	-63
235	0xec	-20
236	0xf8	-8
237	0x19	25
238	0xd1	-47
239	0x81	-127
240	0x19	25
241	0xa9	-87
242	0xd8	-40
243	0x31	49
244	0xb7	-73
245	0x01	1
246	0x69	105
247	0x81	-127
248	0xfe	-2
249	0x02	2
250	0xf6	-10
251	0x55	85
252	0xc6	-58
253	0x81	-127
254	0xd0	-48
255	0xf7	-9

model/conv2d_5/Conv2D i1 [16, 1, 1, 48]
0	0x18	24
1	0x02	2
2	0x26	38
3	0x45	69
4	0x46	70
5	0xdf	-33
6	0xad	-83
7	0x15	21
8	0x0b	11
9	0x22	34
10	0x29	41
11	0x46	70
12	0xe3	-29
13	0x1b	27
14	0xe6	-26
15	0xf3	-13
16	0xf0	-16
17	0xd7	-41
18	0xe3	-29
19	0xf1	-15
20	0x5a	90
21	0x26	38
22	0x17	23
23	0x22	34
24	0x6c	108
25	0xca	-54
26	0x57	87
27	0x3f	63
28	0xff	-1
29	0xee	-18
30	0x17	23
31	0x63	99
32	0xaf	-81
33	0x40	64
34	0xd8	-40
35	0x94	-108
36	0x3f	63
37	0x09	9
38	0xc6	-58
39	0x0c	12
40	0x7f	127
41	0xf8	-8
42	0x21	33
43	0xdc	-36
44	0xf5	-11
45	0x0a	10
46	0x1f	31
47	0xd2	-46
48	0xaf	-81
49	0x0f	15
50	0x9c	-100
51	0xb6	-74
52	0xeb	-21
53	0xc0	-64
54	0xaf	-81
55	0xef	-17
56	0xdf	-33
57	0xda	-38
58	0xc1	-63
59	0xe6	-26
60	0x52	82
61	0x91	-111
62	0x20	32
63	0x24	36
64	0x54	84
65	0x4a	74
66	0xdb	-37
67	0xc3	-61
68	0xa9	-87
69	0x71	113
70	0x1f	31
71	0x9c	-100
72	0x00	0
73	0xd2	-46
74	0xd6	-42
75	0x18	24
76	0xd0	-48
77	0xe8	-24
78	0x33	51
79	0x8d	-115
80	0x4a	74
81	0x15	21
82	0x42	66
83	0x43	67
84	0x09	9
85	0x2b	43
86	0xfa	-6
87	0x90	-112
88	0x2b	43
89	0xea	-22
90	0x99	-103
91	0x3a	58
92	0x93	-109
93	0x3b	59
94	0x8f	-113
95	0x81	-127
96	0x32	50
97	0x2d	45
98	0xe5	-27
99	0x1e	30
100	0x11	17
101	0xfc	-4
102	0x2a	42
103	0xbf	-65
104	0xf4	-12
105	0x27	39
106	0x17	23
107	0x46	70
108	0xce	-50
109	0x20	32
110	0xe1	-31
111	0x11	17
112	0xc6	-58
113	0xf2	-14
114	0x1a	26
115	0x7f	127
116	0x1b	27
117	0x2f	47
118	0x1e	30
119	0xfa	-6
120	0x32	50
121	0xb8	-72
122	0x29	41
123	0x40	64
124	0x4f	79
125	0xb8	-72
126	0xab	-85
127	0x2c	44
128	0x3e	62
129	0x18	24
130	0x75	117
131	0x27	39
132	0x27	39
133	0x02	2
134	0x48	72
135	0xa4	-92
136	0xc6	-58
137	0x2b	43
138	0x3b	59
139	0xe9	-23
140	0x50	80
141	0xc7	-57
142	0x54	84
143	0xab	-85
144	0x1e	30
145	0xe8	-24
146	0xea	-22
147	0xe7	-25
148	0x32	50
149	0xe5	-27
150	0xd9	-39
151	0x1c	28
152	0x4e	78
153	0x02	2
154	0x1d	29
155	0x0f	15
156	0x1c	28
157	0x1a	26
158	0xdb	-37
159	0xeb	-21
160	0xfc	-4
161	0x3a	58
162	0xcf	-49
163	0xe8	-24
164	0x29	41
165	0x26	38
166	0xe0	-32
167	0x27	39
168	0x13	19
169	0xf1	-15
170	0x51	81
171	0x21	33
172	0x54	84
173	0x7f	127
174	0xc4	-60
175	0x12	18
176	0xfe	-2
177	0x22	34
178	0x1f	31
179	0xf0	-16
180	0x2e	46
181	0xf8	-8
182	0xec	-20
183	0xff	-1
184	0xdf	-33
185	0x18	24
186	0xe7	-25
187	0xf6	-10
188	0x0b	11
189	0x0c	12
190	0xe8	-24
191	0x1b	27
192	0xff	-1
193	0x6e	110
194	0xb2	-78
195	0xa2	-94
196	0xc6	-58
197	0x07	7
198	0x2d	45
199	0x40	64
200	0x62	98
201	0x2a	42
202	0xd6	-42
203	0x21	33
204	0x81	-127
205	0x25	37
206	0xe3	-29
207	0x95	-107
208	0xef	-17
209	0x14	20
210	0x27	39
211	0x36	54
212	0xe8	-24
213	0x24	36
214	0x5e	94
215	0x47	71
216	0x17	23
217	0x29	41
218	0xf8	-8
219	0xcd	-51
220	0xd9	-39
221	0x6c	108
222	0x40	64
223	0xbb	-69
224	0x03	3
225	0x1a	26
226	0x55	85
227	0xfc	-4
228	0x57	87
229	0xf2	-14
230	0x26	38
231	0xab	-85
232	0x2c	44
233	0xf2	-14
234	0xec	-20
235	0x2f	47
236	0xdd	-35
237	0x07	7
238	0xe9	-23
239	0x37	55
240	0x30	48
241	0x1e	30
242	0x22	34
243	0xcf	-49
244	0xe3	-29
245	0x3e	62
246	0xcb	-53
247	0x17	23
248	0x1d	29
249	0x7f	127
250	0x03	3
251	0xef	-17
252	0x38	56
253	0x36	54
254	0xb8	-72
255	0x2e	46

model/conv2d_6/Conv2D i1 [64, 1, 1, 24]
0	0x29	41
1	0xdb	-37
2	0xef	-17
3	0xd9	-39
4	0x08	8
5	0xf6	-10
6	0xf3	-13
7	0xf7	-9
8	0xf6	-10
9	0xfd	-3
10	0xf1	-15
11	0xfe	-2
12	0x02	2
13	0x01	1
14	0x11	17
15	0xec	-20
16	0x7f	127
17	0x0f	15
18	0x10	16
19	0xb6	-74
20	0xdd	-35
21	0x21	33
22	0x04	4
23	0xcf	-49
24	0xa9	-87
25	0xd2	-46
26	0x62	98
27	0xcc	-52
28	0xa0	-96
29	0xcf	-49
30	0xd2	-46
31	0x8e	-114
32	0x7f	127
33	0x0b	11
34	0x5a	90
35	0x03	3
36	0x5c	92
37	0x03	3
38	0xad	-83
39	0xf7	-9
40	0x31	49
41	0x1b	27
42	0xe7	-25
43	0x8c	-116
44	0x0d	13
45	0xeb	-21
46	0xf8	-8
47	0x19	25
48	0xd8	-40
49	0x37	55
50	0x52	82
51	0xd5	-43
52	0xc0	-64
53	0xb0	-80
54	0x17	23
55	0xf7	-9
56	0x2a	42
57	0x11	17
58	0xd2	-46
59	0xf0	-16
60	0x2b	43
61	0x2c	44
62	0x2d	45
63	0x2c	44
64	0x25	37
65	0x2a	42
66	0x03	3
67	0xb7	-73
68	0xf7	-9
69	0x20	32
70	0x81	-127
71	0x4b	75
72	0x25	37
73	0x12	18
74	0xd2	-46
75	0x12	18
76	0xf9	-7
77	0x08	8
78	0x2d	45
79	0x1a	26
80	0xfe	-2
81	0x1e	30
82	0x20	32
83	0x19	25
84	0x23	35
85	0x02	2
86	0xec	-20
87	0x02	2
88	0x12	18
89	0x33	51
90	0x35	53
91	0x46	70
92	0xbe	-66
93	0x19	25
94	0x81	-127
95	0xe6	-26
96	0x2a	42
97	0xd8	-40
98	0xff	-1
99	0x51	81
100	0x81	-127
101	0x01	1
102	0x15	21
103	0xc0	-64
104	0x3c	60
105	0x20	32
106	0xfc	-4
107	0xb9	-71
108	0x57	87
109	0x2b	43
110	0xb4	-76
111	0xe9	-23
112	0x2a	42
113	0xf0	-16
114	0xe4	-28
115	0xa9	-87
116	0x04	4
117	0xbf	-65
118	0xf8	-8
119	0x09	9
120	0x20	32
121	0xdb	-37
122	0xc6	-58
123	0xfa	-6
124	0xdb	-37
125	0xf8	-8
126	0x0d	13
127	0x12	18
128	0xda	-38
129	0xe0	-32
130	0xdf	-33
131	0xe8	-24
132	0xfe	-2
133	0x20	32
134	0xe3	-29
135	0x07	7
136	0xfe	-2
137	0x5d	93
138	0x0d	13
139	0x44	68
140	0xba	-70
141	0x3b	59
142	0x81	-127
143	0xe8	-24
144	0xef	-17
145	0xa2	-94
146	0x15	21
147	0x3a	58
148	0x21	33
149	0xb2	-78
150	0x00	0
151	0x04	4
152	0xe9	-23
153	0x01	1
154	0x81	-127
155	0x0d	13
156	0xdc	-36
157	0x82	-126
158	0x19	25
159	0xec	-20
160	0x06	6
161	0x3a	58
162	0xd5	-43
163	0xbd	-67
164	0x30	48
165	0x31	49
166	0xe9	-23
167	0xeb	-21
168	0xfd	-3
169	0xb4	-76
170	0x7f	127
171	0xa5	-91
172	0xec	-20
173	0x00	0
174	0x13	19
175	0xe0	-32
176	0x58	88
177	0x49	73
178	0xbd	-67
179	0xf9	-7
180	0x0c	12
181	0xd6	-42
182	0xef	-17
183	0x30	48
184	0x1f	31
185	0x0c	12
186	0x06	6
187	0xcb	-53
188	0x1e	30
189	0x34	52
190	0x19	25
191	0x6c	108
192	0x25	37
193	0xcf	-49
194	0x7b	123
195	0xd7	-41
196	0x6c	108
197	0x35	53
198	0x31	49
199	0x89	-119
200	0xf6	-10
201	0x1e	30
202	0xa0	-96
203	0xc4	-60
204	0x0f	15
205	0x81	-127
206	0x31	49
207	0x19	25
208	0xd6	-42
209	0x2a	42
210	0xda	-38
211	0x12	18
212	0x5b	91
213	0x6b	107
214	0x49	73
215	0x24	36
216	0xfa	-6
217	0x28	40
218	0x10	16
219	0x04	4
220	0x34	52
221	0xd7	-41
222	0x2d	45
223	0xe3	-29
224	0xf7	-9
225	0x01	1
226	0xec	-20
227	0xe1	-31
228	0xf0	-16
229	0xf8	-8
230	0x26	38
231	0xf5	-11
232	0xd8	-40
233	0x35	53
234	0xeb	-21
235	0xd8	-40
236	0x33	51
237	0x1f	31
238	0x81	-127
239	0x61	97
240	0x7e	126
241	0xc1	-63
242	0x22	34
243	0xff	-1
244	0xd4	-44
245	0xdf	-33
246	0x1a	26
247	0xd4	-44
248	0x0f	15
249	0x6a	106
250	0xc1	-63
251	0x03	3
252	0x10	16
253	0xeb	-21
254	0xfe	-2
255	0x7f	127

model/conv2d_7/Conv2D i1 [24, 1, 1, 64]
0	0x58	88
1	0x06	6
2	0x2e	46
3	0xed	-19
4	0xcf	-49
5	0x0b	11
6	0x61	97
7	0x16	22
8	0x38	56
9	0x5f	95
10	0x28	40
11	0x5d	93
12	0x26	38
13	0x2c	44
14	0xd5	-43
15	0xe7	-25
16	0xfb	-5
17	0xe7	-25
18	0x2c	44
19	0x09	9
20	0xb3	-77
21	0xfe	-2
22	0xda	-38
23	0xf0	-16
24	0x48	72
25	0x0a	10
26	0x0d	13
27	0xf7	-9
28	0xe6	-26
29	0x13	19
30	0xc3	-61
31	0x4e	78
32	0xf2	-14
33	0x3a	58
34	0xa1	-95
35	0x2b	43
36	0x3e	62
37	0xdc	-36
38	0xf6	-10
39	0xef	-17
40	0xfd	-3
41	0xf2	-14
42	0xfc	-4
43	0x0a	10
44	0xed	-19
45	0xf6	-10
46	0x2a	42
47	0x15	21
48	0x81	-127
49	0xe4	-28
50	0xd1	-47
51	0x1d	29
52	0x01	1
53	0xec	-20
54	0xe1	-31
55	0xf7	-9
56	0x28	40
57	0xdd	-35
58	0xd7	-41
59	0x51	81
60	0xec	-20
61	0x5b	91
62	0xff	-1
63	0xcd	-51
64	0x35	53
65	0xbd	-67
66	0xdf	-33
67	0xda	-38
68	0x01	1
69	0x10	16
70	0x0b	11
71	0x19	25
72	0x11	17
73	0xcd	-51
74	0x04	4
75	0xa4	-92
76	0x03	3
77	0x15	21
78	0x02	2
79	0x0e	14
80	0x3e	62
81	0x65	101
82	0xe6	-26
83	0xf7	-9
84	0xdf	-33
85	0xb1	-79
86	0xf3	-13
87	0xe4	-28
88	0x05	5
89	0x14	20
90	0x27	39
91	0xfc	-4
92	0x1b	27
93	0x07	7
94	0xe1	-31
95	0x00	0
96	0x22	34
97	0xde	-34
98	0x0f	15
99	0x10	16
100	0x13	19
101	0xf3	-13
102	0x7f	127
103	0xf4	-12
104	0x02	2
105	0x33	51
106	0x01	1
107	0xd4	-44
108	0x45	69
109	0xe7	-25
110	0x02	2
111	0x14	20
112	0xf5	-11
113	0xe8	-24
114	0xf0	-16
115	0xfb	-5
116	0x1b	27
117	0x35	53
118	0x03	3
119	0x82	-126
120	0x04	4
121	0xe2	-30
122	0x0c	12
123	0xf8	-8
124	0x04	4
125	0x1c	28
126	0xfd	-3
127	0xf6	-10
128	0xb6	-74
129	0x22	34
130	0x11	17
131	0x04	4
132	0x28	40
133	0x14	20
134	0x08	8
135	0xec	-20
136	0x2f	47
137	0x09	9
138	0x02	2
139	0xf5	-11
140	0x1b	27
141	0x9f	-97
142	0x9f	-97
143	0xf4	-12
144	0x04	4
145	0x8a	-118
146	0x21	33
147	0xfc	-4
148	0x36	54
149	0xfc	-4
150	0x0d	13
151	0x1f	31
152	0xf4	-12
153	0x4c	76
154	0x05	5
155	0x7f	127
156	0x20	32
157	0x20	32
158	0xdc	-36
159	0xab	-85
160	0x50	80
161	0x5f	95
162	0x1b	27
163	0x32	50
164	0xdc	-36
165	0x25	37
166	0x62	98
167	0x2f	47
168	0x3f	63
169	0xda	-38
170	0xda	-38
171	0x04	4
172	0x48	72
173	0x19	25
174	0x22	34
175	0x29	41
176	0x29	41
177	0xe0	-32
178	0x0e	14
179	0x20	32
180	0x08	8
181	0xf8	-8
182	0xae	-82
183	0x16	22
184	0x10	16
185	0xc0	-64
186	0x09	9
187	0xff	-1
188	0xf4	-12
189	0xe6	-26
190	0xec	-20
191	0x4d	77
192	0xed	-19
193	0xe2	-30
194	0xa1	-95
195	0x05	5
196	0x1f	31
197	0x12	18
198	0xe1	-31
199	0x1e	30
200	0xfc	-4
201	0x07	7
202	0x09	9
203	0x73	115
204	0xa5	-91
205	0x1f	31
206	0xd1	-47
207	0x05	5
208	0x1c	28
209	0xe1	-31
210	0xfe	-2
211	0xe6	-26
212	0x1a	26
213	0xf2	-14
214	0x04	4
215	0xf0	-16
216	0xed	-19
217	0xe1	-31
218	0x0c	12
219	0xfe	-2
220	0x16	22
221	0xfa	-6
222	0xef	-17
223	0x12	18
224	0xfc	-4
225	0x14	20
226	0x04	4
227	0x08	8
228	0xfe	-2
229	0xff	-1
230	0xdf	-33
231	0xdc	-36
232	0x0d	13
233	0x16	22
234	0xec	-20
235	0xe2	-30
236	0xfd	-3
237	0xef	-17
238	0x81	-127
239	0xf8	-8
240	0xe9	-23
241	0xee	-18
242	0x13	19
243	0x0b	11
244	0x0b	11
245	0x2b	43
246	0xe8	-24
247	0xef	-17
248	0x02	2
249	0x47	71
250	0xef	-17
251	0x26	38
252	0xfb	-5
253	0x3c	60
254	0xfc	-4
255	0xdb	-37

model/conv2d_8/Conv2D i1 [96, 1, 1, 24]
0	0x14	20
1	0xe0	-32
2	0x0a	10
3	0x45	69
4	0xa7	-89
5	0x81	-127
6	0x64	100
7	0xae	-82
8	0xf7	-9
9	0x1a	26
10	0xc8	-56
11	0xf5	-11
12	0xc5	-59
13	0x19	25
14	0x06	6
15	0xbc	-68
16	0x3e	62
17	0x17	23
18	0x1d	29
19	0xfb	-5
20	0xe7	-25
21	0xb9	-71
22	0xcc	-52
23	0xd8	-40
24	0x29	41
25	0xd6	-42
26	0x0a	10
27	0x15	21
28	0xf5	-11
29	0xc8	-56
30	0x52	82
31	0x38	56
32	0xd6	-42
33	0xee	-18
34	0xbf	-65
35	0xc2	-62
36	0x9a	-102
37	0x3c	60
38	0xfa	-6
39	0x05	5
40	0x3d	61
41	0xd4	-44
42	0xa7	-89
43	0x81	-127
44	0xad	-83
45	0x28	40
46	0x0f	15
47	0x0e	14
48	0xf2	-14
49	0x33	51
50	0x3e	62
51	0xe1	-31
52	0xea	-22
53	0x5f	95
54	0x43	67
55	0xd1	-47
56	0xd8	-40
57	0xca	-54
58	0x20	32
59	0x0e	14
60	0x40	64
61	0xcb	-53
62	0xf8	-8
63	0x7f	127
64	0xeb	-21
65	0x81	-127
66	0xfa	-6
67	0xd3	-45
68	0x38	56
69	0x7f	127
70	0x0c	12
71	0x76	118
72	0xda	-38
73	0xf0	-16
74	0xde	-34
75	0x0a	10
76	0x38	56
77	0xe3	-29
78	0x12	18
79	0x3b	59
80	0x05	5
81	0x24	36
82	0xec	-20
83	0x1a	26
84	0x2b	43
85	0xe8	-24
86	0x7f	127
87	0x00	0
88	0xe5	-27
89	0x04	4
90	0x06	6
91	0xd4	-44
92	0x54	84
93	0x2e	46
94	0xf6	-10
95	0x23	35
96	0xf5	-11
97	0x48	72
98	0x78	120
99	0x01	1
100	0xf8	-8
101	0xbf	-65
102	0xe4	-28
103	0xfb	-5
104	0xe9	-23
105	0x09	9
106	0xe2	-30
107	0x10	16
108	0xc9	-55
109	0x25	37
110	0xf0	-16
111	0x2b	43
112	0x1f	31
113	0x81	-127
114	0xdb	-37
115	0x1a	26
116	0xdc	-36
117	0xdd	-35
118	0x34	52
119	0xf1	-15
120	0x18	24
121	0x1a	26
122	0x3e	62
123	0x90	-112
124	0x1d	29
125	0x81	-127
126	0x13	19
127	0xc0	-64
128	0x12	18
129	0x14	20
130	0x0e	14
131	0x24	36
132	0x02	2
133	0x48	72
134	0xa8	-88
135	0xa7	-89
136	0x0a	10
137	0x42	66
138	0xe8	-24
139	0xf6	-10
140	0x1b	27
141	0x41	65
142	0xb1	-79
143	0xf2	-14
144	0x0c	12
145	0xbb	-69
146	0x41	65
147	0xc1	-63
148	0xb5	-75
149	0x12	18
150	0xfc	-4
151	0x81	-127
152	0x3a	58
153	0xa0	-96
154	0x12	18
155	0x05	5
156	0xbb	-69
157	0x1a	26
158	0x29	41
159	0x61	97
160	0x30	48
161	0x3d	61
162	0x14	20
163	0x46	70
164	0xd0	-48
165	0xff	-1
166	0xc4	-60
167	0x1d	29
168	0xf4	-12
169	0x12	18
170	0xdd	-35
171	0x6b	107
172	0xea	-22
173	0xb8	-72
174	0xb4	-76
175	0x7f	127
176	0x74	116
177	0xcb	-53
178	0xdc	-36
179	0x07	7
180	0x0e	14
181	0x68	104
182	0x07	7
183	0x2d	45
184	0xe2	-30
185	0xf5	-11
186	0xc5	-59
187	0x0d	13
188	0x37	55
189	0xb9	-71
190	0xdb	-37
191	0xe1	-31
192	0x29	41
193	0xda	-38
194	0x04	4
195	0x83	-125
196	0x88	-120
197	0xd1	-47
198	0x29	41
199	0x81	-127
200	0xc1	-63
201	0x0b	11
202	0xf3	-13
203	0xde	-34
204	0x8d	-115
205	0x98	-104
206	0x6d	109
207	0x75	117
208	0x17	23
209	0x2b	43
210	0xfd	-3
211	0x0e	14
212	0xc7	-57
213	0x23	35
214	0x79	121
215	0x2e	46
216	0x6c	108
217	0xf2	-14
218	0x31	49
219	0x02	2
220	0x14	20
221	0x33	51
222	0x58	88
223	0x86	-122
224	0x68	104
225	0xe8	-24
226	0xa8	-88
227	0x7b	123
228	0x69	105
229	0x33	51
230	0xd6	-42
231	0x74	116
232	0xdb	-37
233	0xe4	-28
234	0xd1	-47
235	0x8c	-116
236	0x0b	11
237	0x7d	125
238	0x81	-127
239	0x5f	95
240	0xda	-38
241	0xfc	-4
242	0x15	21
243	0x62	98
244	0xfa	-6
245	0x50	80
246	0xbe	-66
247	0x09	9
248	0xef	-17
249	0x4f	79
250	0xdd	-35
251	0xf2	-14
252	0xb8	-72
253	0x19	25
254	0xa2	-94
255	0xe7	-25

model/conv2d_9/Conv2D i1 [24, 1, 1, 96]
0	0x18	24
1	0xf1	-15
2	0xbf	-65
3	0x1d	29
4	0x06	6
5	0xe3	-29
6	0xef	-17
7	0x13	19
8	0x4b	75
9	0xf3	-13
10	0x1c	28
11	0x25	37
12	0xb6	-74
13	0xfd	-3
14	0xd2	-46
15	0xd4	-44
16	0xd1	-47
17	0x4c	76
18	0x13	19
19	0x42	66
20	0xd7	-41
21	0xeb	-21
22	0xc4	-60
23	0x0a	10
24	0xd2	-46
25	0xce	-50
26	0xe0	-32
27	0x3c	60
28	0x26	38
29	0xe0	-32
30	0x01	1
31	0xd1	-47
32	0xe0	-32
33	0x00	0
34	0x1e	30
35	0xcd	-51
36	0x33	51
37	0x1c	28
38	0x2d	45
39	0x14	20
40	0x7f	127
41	0xdd	-35
42	0xe0	-32
43	0x36	54
44	0x12	18
45	0x02	2
46	0x08	8
47	0x19	25
48	0xe4	-28
49	0x24	36
50	0xe7	-25
51	0xfb	-5
52	0xb2	-78
53	0xbe	-66
54	0x1d	29
55	0xb5	-75
56	0xed	-19
57	0xf2	-14
58	0xd8	-40
59	0x2b	43
60	0xe9	-23
61	0x13	19
62	0xbf	-65
63	0x12	18
64	0xe4	-28
65	0xb9	-71
66	0x08	8
67	0x14	20
68	0x11	17
69	0xe5	-27
70	0xc9	-55
71	0x09	9
72	0xe9	-23
73	0xa4	-92
74	0x10	16
75	0x2a	42
76	0x09	9
77	0x66	102
78	0x0d	13
79	0x34	52
80	0xe0	-32
81	0xcc	-52
82	0xda	-38
83	0x08	8
84	0x4b	75
85	0x22	34
86	0x19	25
87	0xbc	-68
88	0x18	24
89	0xf0	-16
90	0x05	5
91	0xf1	-15
92	0xe3	-29
93	0x00	0
94	0xff	-1
95	0x9c	-100
96	0xc2	-62
97	0x12	18
98	0xcd	-51
99	0xd5	-43
100	0xc6	-58
101	0x0a	10
102	0x20	32
103	0x0b	11
104	0x19	25
105	0x28	40
106	0xde	-34
107	0x91	-111
108	0x6e	110
109	0x50	80
110	0x1b	27
111	0x99	-103
112	0xf6	-10
113	0xb1	-79
114	0xd4	-44
115	0xdc	-36
116	0xaa	-86
117	0x1e	30
118	0xe9	-23
119	0x2e	46
120	0x4e	78
121	0x07	7
122	0x46	70
123	0xf2	-14
124	0x30	48
125	0xf2	-14
126	0xee	-18
127	0xcd	-51
128	0x12	18
129	0x0d	13
130	0xe4	-28
131	0x20	32
132	0x7f	127
133	0xfc	-4
134	0xc9	-55
135	0xd0	-48
136	0x4c	76
137	0x0f	15
138	0xc6	-58
139	0x41	65
140	0xc3	-61
141	0xf1	-15
142	0xd0	-48
143	0xdb	-37
144	0x5d	93
145	0x10	16
146	0x30	48
147	0xdb	-37
148	0x1b	27
149	0xc7	-57
150	0xba	-70
151	0x3c	60
152	0x1b	27
153	0xfc	-4
154	0xd8	-40
155	0x04	4
156	0xbd	-67
157	0x01	1
158	0xc2	-62
159	0x0f	15
160	0x3b	59
161	0xd1	-47
162	0x1f	31
163	0xe6	-26
164	0xf4	-12
165	0x2c	44
166	0xe3	-29
167	0xcd	-51
168	0xbf	-65
169	0xf7	-9
170	0x1d	29
171	0xe5	-27
172	0xd9	-39
173	0x31	49
174	0xf6	-10
175	0x31	49
176	0x0d	13
177	0x03	3
178	0xf9	-7
179	0xe9	-23
180	0x43	67
181	0xc1	-63
182	0x32	50
183	0xd0	-48
184	0x1c	28
185	0x38	56
186	0x27	39
187	0xde	-34
188	0x06	6
189	0x56	86
190	0x1d	29
191	0x93	-109
192	0xc5	-59
193	0x2d	45
194	0x7f	127
195	0x4d	77
196	0x46	70
197	0xcc	-52
198	0xdf	-33
199	0x10	16
200	0xe4	-28
201	0x19	25
202	0xa8	-88
203	0x14	20
204	0x28	40
205	0xd7	-41
206	0xa9	-87
207	0x35	53
208	0x00	0
209	0x4d	77
210	0x5f	95
211	0xe7	-25
212	0x36	54
213	0xfd	-3
214	0x8b	-117
215	0x15	21
216	0xda	-38
217	0xce	-50
218	0xf0	-16
219	0xed	-19
220	0x94	-108
221	0x1c	28
222	0x08	8
223	0x5a	90
224	0x1e	30
225	0x0a	10
226	0x21	33
227	0x34	52
228	0xfb	-5
229	0xf6	-10
230	0x13	19
231	0xda	-38
232	0x71	113
233	0xf7	-9
234	0xfe	-2
235	0xce	-50
236	0x3d	61
237	0x04	4
238	0xeb	-21
239	0xba	-70
240	0x35	53
241	0xfb	-5
242	0xe1	-31
243	0xe0	-32
244	0xfb	-5
245	0x61	97
246	0x39	57
247	0xd0	-48
248	0xda	-38
249	0x00	0
250	0x1b	27
251	0xee	-18
252	0x61	97
253	0x33	51
254	0x87	-121
255	0x0c	12

model/conv2d_10/Conv2D i1 [96, 1, 1, 24]
0	0x11	17
1	0xf8	-8
2	0x5a	90
3	0x6d	109
4	0x27	39
5	0xd5	-43
6	0x32	50
7	0xec	-20
8	0x7f	127
9	0x6d	109
10	0x30	48
11	0x55	85
12	0xc7	-57
13	0xbf	-65
14	0xe0	-32
15	0x4d	77
16	0xde	-34
17	0xc3	-61
18	0x37	55
19	0xd6	-42
20	0xc2	-62
21	0xc3	-61
22	0x3e	62
23	0x44	68
24	0x42	66
25	0x65	101
26	0xd2	-46
27	0xf9	-7
28	0x15	21
29	0xe6	-26
30	0x63	99
31	0x06	6
32	0xd7	-41
33	0xf9	-7
34	0x1e	30
35	0xc9	-55
36	0x31	49
37	0x05	5
38	0x3e	62
39	0x09	9
40	0xd1	-47
41	0x11	17
42	0x81	-127
43	0x57	87
44	0x22	34
45	0xb8	-72
46	0x07	7
47	0xeb	-21
48	0xbf	-65
49	0x70	112
50	0x70	112
51	0x40	64
52	0x60	96
53	0x81	-127
54	0x1d	29
55	0x4c	76
56	0x70	112
57	0x76	118
58	0xca	-54
59	0xd0	-48
60	0x00	0
61	0x62	98
62	0x1a	26
63	0xdd	-35
64	0xb4	-76
65	0x06	6
66	0x67	103
67	0x61	97
68	0x07	7
69	0xe9	-23
70	0xe3	-29
71	0xb2	-78
72	0xfc	-4
73	0xe8	-24
74	0x31	49
75	0x55	85
76	0x02	2
77	0xf2	-14
78	0xc7	-57
79	0x0c	12
80	0xf0	-16
81	0x59	89
82	0x1c	28
83	0xc2	-62
84	0xe1	-31
85	0x7f	127
86	0xda	-38
87	0xfb	-5
88	0xe8	-24
89	0xca	-54
90	0xf7	-9
91	0x50	80
92	0x45	69
93	0x03	3
94	0xc3	-61
95	0xea	-22
96	0x0a	10
97	0xd2	-46
98	0xe9	-23
99	0x13	19
100	0x56	86
101	0x08	8
102	0xfa	-6
103	0x59	89
104	0x17	23
105	0x35	53
106	0xfc	-4
107	0xfb	-5
108	0x07	7
109	0x19	25
110	0x81	-127
111	0xc5	-59
112	0x39	57
113	0xd3	-45
114	0x44	68
115	0xb8	-72
116	0xd6	-42
117	0xdd	-35
118	0x2f	47
119	0xe3	-29
120	0x02	2
121	0xd3	-45
122	0x28	40
123	0xbc	-68
124	0xff	-1
125	0x01	1
126	0xf5	-11
127	0xab	-85
128	0x18	24
129	0xcd	-51
130	0x7f	127
131	0x41	65
132	0x26	38
133	0xf3	-13
134	0x4b	75
135	0x0a	10
136	0x48	72
137	0xdf	-33
138	0x15	21
139	0xfd	-3
140	0x37	55
141	0x40	64
142	0xf1	-15
143	0xfb	-5
144	0x16	22
145	0xfd	-3
146	0xf8	-8
147	0x0e	14
148	0x32	50
149	0xd9	-39
150	0x44	68
151	0x19	25
152	0xd5	-43
153	0x47	71
154	0x1a	26
155	0x18	24
156	0xad	-83
157	0x81	-127
158	0xd7	-41
159	0x52	82
160	0xd0	-48
161	0xaf	-81
162	0x09	9
163	0x03	3
164	0xed	-19
165	0x0a	10
166	0xf8	-8
167	0x36	54
168	0xe9	-23
169	0x0b	11
170	0xbe	-66
171	0x0f	15
172	0xce	-50
173	0xfa	-6
174	0xd5	-43
175	0x1a	26
176	0xc7	-57
177	0xf5	-11
178	0xba	-70
179	0x02	2
180	0x0f	15
181	0xf9	-7
182	0xca	-54
183	0x3f	63
184	0x70	112
185	0x35	53
186	0xe4	-28
187	0xf1	-15
188	0x7f	127
189	0xdd	-35
190	0xf2	-14
191	0xe3	-29
192	0x81	-127
193	0xad	-83
194	0xc3	-61
195	0x10	16
196	0xf3	-13
197	0xf5	-11
198	0x37	55
199	0x04	4
200	0x33	51
201	0xc6	-58
202	0xbe	-66
203	0x7c	124
204	0xe8	-24
205	0x03	3
206	0xf4	-12
207	0xd0	-48
208	0xc4	-60
209	0xdf	-33
210	0x59	89
211	0x55	85
212	0xfc	-4
213	0x0e	14
214	0x8c	-116
215	0xdf	-33
216	0x19	25
217	0xfa	-6
218	0x15	21
219	0xc9	-55
220	0x00	0
221	0x2c	44
222	0x04	4
223	0xe6	-26
224	0xc7	-57
225	0x81	-127
226	0x0f	15
227	0xd2	-46
228	0x9d	-99
229	0xd0	-48
230	0x24	36
231	0xfa	-6
232	0x13	19
233	0xec	-20
234	0x1f	31
235	0xe5	-27
236	0x50	80
237	0x66	102
238	0xc9	-55
239	0x15	21
240	0x0c	12
241	0x27	39
242	0x1d	29
243	0x20	32
244	0x1b	27
245	0x6d	109
246	0x04	4
247	0xc5	-59
248	0x05	5
249	0xde	-34
250	0xc1	-63
251	0xde	-34
252	0xd5	-43
253	0xed	-19
254	0xa2	-94
255	0xa4	-92

model/conv2d_11/Conv2D i1 [24, 1, 1, 96]
0	0x4c	76
1	0xee	-18
2	0x04	4
3	0xd1	-47
4	0xff	-1
5	0xcb	-53
6	0x1a	26
7	0xde	-34
8	0xe0	-32
9	0x02	2
10	0x5e	94
11	0xcd	-51
12	0x2c	44
13	0x65	101
14	0x18	24
15	0xe4	-28
16	0xe1	-31
17	0x19	25
18	0xed	-19
19	0x12	18
20	0x32	50
21	0xb8	-72
22	0xd9	-39
23	0x0a	10
24	0xdd	-35
25	0xe8	-24
26	0xfc	-4
27	0x09	9
28	0x36	54
29	0xf4	-12
30	0x19	25
31	0xb8	-72
32	0xb8	-72
33	0xee	-18
34	0xd7	-41
35	0x23	35
36	0x29	41
37	0x42	66
38	0x1e	30
39	0xff	-1
40	0xe6	-26
41	0x36	54
42	0x0d	13
43	0xde	-34
44	0x35	53
45	0x45	69
46	0x7f	127
47	0xd1	-47
48	0x15	21
49	0xf2	-14
50	0xb9	-71
51	0xbf	-65
52	0x87	-121
53	0x11	17
54	0x1b	27
55	0x15	21
56	0x4a	74
57	0x03	3
58	0xd0	-48
59	0xec	-20
60	0xe9	-23
61	0x65	101
62	0x0a	10
63	0xe5	-27
64	0xf2	-14
65	0x42	66
66	0xaf	-81
67	0xf3	-13
68	0xe6	-26
69	0xfe	-2
70	0x4b	75
71	0xfd	-3
72	0x40	64
73	0x26	38
74	0xf0	-16
75	0x34	52
76	0x01	1
77	0x30	48
78	0x0a	10
79	0x4b	75
80	0xf1	-15
81	0xc9	-55
82	0xfc	-4
83	0xf3	-13
84	0xe7	-25
85	0xd3	-45
86	0xed	-19
87	0xe6	-26
88	0xea	-22
89	0x02	2
90	0xb2	-78
91	0xe5	-27
92	0x38	56
93	0x34	52
94	0xcd	-51
95	0xd9	-39
96	0x81	-127
97	0x2e	46
98	0x1a	26
99	0x0a	10
100	0xe5	-27
101	0x04	4
102	0xcb	-53
103	0xbf	-65
104	0xdd	-35
105	0x09	9
106	0xf0	-16
107	0xfd	-3
108	0x31	49
109	0x4a	74
110	0x14	20
111	0x01	1
112	0xdb	-37
113	0xe7	-25
114	0x1a	26
115	0x30	48
116	0xd1	-47
117	0xbc	-68
118	0xfd	-3
119	0xf7	-9
120	0x08	8
121	0x44	68
122	0x0e	14
123	0x07	7
124	0xcf	-49
125	0x1e	30
126	0xe4	-28
127	0xe0	-32
128	0xd4	-44
129	0xb3	-77
130	0xce	-50
131	0x49	73
132	0x0a	10
133	0xf9	-7
134	0x20	32
135	0x10	16
136	0x09	9
137	0x11	17
138	0x0c	12
139	0x27	39
140	0xd3	-45
141	0x3e	62
142	0x1b	27
143	0xdf	-33
144	0x18	24
145	0xaf	-81
146	0x1b	27
147	0x38	56
148	0x09	9
149	0x06	6
150	0x25	37
151	0x15	21
152	0x0b	11
153	0xe3	-29
154	0x0d	13
155	0xe3	-29
156	0x24	36
157	0xe2	-30
158	0xed	-19
159	0x15	21
160	0xf7	-9
161	0x28	40
162	0x11	17
163	0x1a	26
164	0x15	21
165	0xdc	-36
166	0x21	33
167	0xd3	-45
168	0xd7	-41
169	0x08	8
170	0x04	4
171	0x49	73
172	0x20	32
173	0xbb	-69
174	0x0e	14
175	0xdd	-35
176	0xf2	-14
177	0xe3	-29
178	0xb2	-78
179	0xe1	-31
180	0x14	20
181	0xab	-85
182	0x97	-105
183	0xf9	-7
184	0xf5	-11
185	0xcb	-53
186	0xf9	-7
187	0xe0	-32
188	0x08	8
189	0x36	54
190	0xe2	-30
191	0xe1	-31
192	0x60	96
193	0x39	57
194	0x01	1
195	0xc1	-63
196	0xd7	-41
197	0xea	-22
198	0xf8	-8
199	0xf3	-13
200	0x03	3
201	0xd2	-46
202	0xf1	-15
203	0xe2	-30
204	0xe8	-24
205	0x17	23
206	0x2f	47
207	0xfd	-3
208	0x15	21
209	0x81	-127
210	0xd4	-44
211	0x01	1
212	0xc9	-55
213	0x15	21
214	0xdd	-35
215	0xed	-19
216	0xe6	-26
217	0x42	66
218	0xce	-50
219	0x1c	28
220	0x12	18
221	0xeb	-21
222	0xd7	-41
223	0xec	-20
224	0xef	-17
225	0x33	51
226	0x12	18
227	0xed	-19
228	0xfe	-2
229	0x29	41
230	0x26	38
231	0xda	-38
232	0x2d	45
233	0x5a	90
234	0xd6	-42
235	0xcb	-53
236	0xc5	-59
237	0xe5	-27
238	0xdd	-35
239	0x37	55
240	0xc8	-56
241	0x00	0
242	0xd7	-41
243	0xb9	-71
244	0xcf	-49
245	0xff	-1
246	0xdf	-33
247	0xc7	-57
248	0x3b	59
249	0xfe	-2
250	0x1e	30
251	0x01	1
252	0xc2	-62
253	0x1d	29
254	0x0e	14
255	0xf8	-8

model/conv2d_12/Conv2D i1 [96, 1, 1, 24]
0	0xdf	-33
1	0x0f	15
2	0xdc	-36
3	0xe2	-30
4	0x07	7
5	0x0c	12
6	0xab	-85
7	0x18	24
8	0xf3	-13
9	0x0c	12
10	0xd7	-41
11	0xc3	-61
12	0x7c	124
13	0xdc	-36
14	0xd2	-46
15	0xe6	-26
16	0x25	37
17	0x81	-127
18	0xfe	-2
19	0xf3	-13
20	0xe5	-27
21	0xcb	-53
22	0xfa	-6
23	0x07	7
24	0x47	71
25	0x2e	46
26	0x3f	63
27	0xe2	-30
28	0xed	-19
29	0x0c	12
30	0x5e	94
31	0x19	25
32	0xec	-20
33	0x1f	31
34	0xb3	-77
35	0xc6	-58
36	0xb7	-73
37	0x48	72
38	0xc3	-61
39	0x81	-127
40	0xe0	-32
41	0x6e	110
42	0xf4	-12
43	0x3e	62
44	0xb6	-74
45	0xc4	-60
46	0x07	7
47	0xde	-34
48	0xad	-83
49	0xa4	-92
50	0x7f	127
51	0x2c	44
52	0xc4	-60
53	0xe5	-27
54	0x4f	79
55	0x7e	126
56	0x16	22
57	0x12	18
58	0x70	112
59	0x0c	12
60	0x13	19
61	0x5e	94
62	0x26	38
63	0xd6	-42
64	0x01	1
65	0x55	85
66	0xac	-84
67	0xc4	-60
68	0x14	20
69	0xf8	-8
70	0x34	52
71	0xf5	-11
72	0x4f	79
73	0x41	65
74	0xea	-22
75	0x0b	11
76	0x20	32
77	0x12	18
78	0x98	-104
79	0xf0	-16
80	0x81	-127
81	0xef	-17
82	0xb2	-78
83	0x00	0
84	0x3d	61
85	0xb4	-76
86	0x53	83
87	0x17	23
88	0x00	0
89	0xcd	-51
90	0x2a	42
91	0x6c	108
92	0xec	-20
93	0xa5	-91
94	0xca	-54
95	0xc9	-55
96	0xc7	-57
97	0x0a	10
98	0x5b	91
99	0xe2	-30
100	0xd5	-43
101	0xc4	-60
102	0x5b	91
103	0x08	8
104	0x01	1
105	0xe2	-30
106	0x01	1
107	0xb9	-71
108	0x28	40
109	0x21	33
110	0x07	7
111	0xfb	-5
112	0x7f	127
113	0x49	73
114	0xe1	-31
115	0x06	6
116	0x23	35
117	0x3e	62
118	0x08	8
119	0x0d	13
120	0xee	-18
121	0xa1	-95
122	0x41	65
123	0xdb	-37
124	0x0d	13
125	0xc0	-64
126	0x5a	90
127	0xba	-70
128	0xe9	-23
129	0x17	23
130	0x20	32
131	0x1f	31
132	0xc5	-59
133	0xe6	-26
134	0x19	25
135	0x38	56
136	0xf7	-9
137	0x7f	127
138	0x13	19
139	0x5f	95
140	0xe9	-23
141	0xf6	-10
142	0xea	-22
143	0x00	0
144	0x15	21
145	0x97	-105
146	0xdd	-35
147	0xff	-1
148	0xca	-54
149	0x37	55
150	0xe9	-23
151	0x81	-127
152	0x6a	106
153	0x75	117
154	0x01	1
155	0x74	116
156	0x2b	43
157	0xef	-17
158	0x71	113
159	0x18	24
160	0xb8	-72
161	0x31	49
162	0x39	57
163	0x0a	10
164	0xf0	-16
165	0x54	84
166	0xbd	-67
167	0x23	35
168	0x5a	90
169	0xb5	-75
170	0x2c	44
171	0x14	20
172	0x2c	44
173	0x0a	10
174	0xc3	-61
175	0xa4	-92
176	0xf7	-9
177	0x3f	63
178	0x34	52
179	0xff	-1
180	0x96	-106
181	0x7f	127
182	0x04	4
183	0x0f	15
184	0x97	-105
185	0xc8	-56
186	0xca	-54
187	0x13	19
188	0xe3	-29
189	0x9d	-99
190	0xae	-82
191	0x32	50
192	0x48	72
193	0xcc	-52
194	0x2b	43
195	0xdf	-33
196	0x2c	44
197	0xf4	-12
198	0x10	16
199	0x0b	11
200	0xe8	-24
201	0x3d	61
202	0xe2	-30
203	0xff	-1
204	0xf5	-11
205	0xd3	-45
206	0xd9	-39
207	0xd0	-48
208	0xe1	-31
209	0xf8	-8
210	0xbf	-65
211	0xd4	-44
212	0x81	-127
213	0x59	89
214	0x0f	15
215	0x36	54
216	0x10	16
217	0xb1	-79
218	0xb2	-78
219	0xc2	-62
220	0x7f	127
221	0x39	57
222	0xbf	-65
223	0x3e	62
224	0xf9	-7
225	0x02	2
226	0xbb	-69
227	0xa2	-94
228	0x15	21
229	0xcc	-52
230	0x14	20
231	0xe0	-32
232	0x79	121
233	0xf8	-8
234	0xf9	-7
235	0xc6	-58
236	0xb1	-79
237	0xcf	-49
238	0x9a	-102
239	0x35	53
240	0x07	7
241	0x0c	12
242	0xe4	-28
243	0xfe	-2
244	0x09	9
245	0x3b	59
246	0xe0	-32
247	0x17	23
248	0x4e	78
249	0x7f	127
250	0xdd	-35
251	0xe6	-26
252	0x29	41
253	0xe2	-30
254	0x26	38
255	0x0e	14

model/conv2d_13/Conv2D i1 [24, 1, 1, 96]
0	0xd7	-41
1	0x31	49
2	0xed	-19
3	0xd4	-44
4	0x26	38
5	0xd2	-46
6	0xfb	-5
7	0x04	4
8	0xfb	-5
9	0x3d	61
10	0xf7	-9
11	0x3b	59
12	0xbe	-66
13	0xcd	-51
14	0x1d	29
15	0xce	-50
16	0xc3	-61
17	0x38	56
18	0x35	53
19	0xe8	-24
20	0x22	34
21	0xe5	-27
22	0x3a	58
23	0x1d	29
24	0xf3	-13
25	0x9d	-99
26	0x8e	-114
27	0x14	20
28	0x44	68
29	0xfa	-6
30	0x04	4
31	0xb5	-75
32	0xf1	-15
33	0x45	69
34	0xee	-18
35	0xfc	-4
36	0x21	33
37	0xff	-1
38	0xfb	-5
39	0xf1	-15
40	0x5a	90
41	0x2e	46
42	0x1b	27
43	0xe6	-26
44	0x38	56
45	0x69	105
46	0x0b	11
47	0xb4	-76
48	0x0e	14
49	0xff	-1
50	0xcf	-49
51	0x36	54
52	0xfb	-5
53	0xd2	-46
54	0x20	32
55	0x1a	26
56	0x26	38
57	0x2d	45
58	0x5e	94
59	0x11	17
60	0xe7	-25
61	0x00	0
62	0x01	1
63	0x1f	31
64	0x09	9
65	0x25	37
66	0x0d	13
67	0x36	54
68	0x3e	62
69	0x61	97
70	0x39	57
71	0xab	-85
72	0xf5	-11
73	0xaa	-86
74	0xb1	-79
75	0xc6	-58
76	0x0d	13
77	0x7f	127
78	0xf0	-16
79	0xdd	-35
80	0xd7	-41
81	0xe7	-25
82	0x4a	74
83	0xe3	-29
84	0x0b	11
85	0x0d	13
86	0x21	33
87	0xdf	-33
88	0x28	40
89	0x16	22
90	0xc5	-59
91	0xd6	-42
92	0xf4	-12
93	0x07	7
94	0xf4	-12
95	0xb3	-77
96	0x0a	10
97	0xe5	-27
98	0x3a	58
99	0xf6	-10
100	0x15	21
101	0x43	67
102	0xbc	-68
103	0x56	86
104	0xe6	-26
105	0x34	52
106	0x17	23
107	0x03	3
108	0xfe	-2
109	0xcf	-49
110	0x11	17
111	0x13	19
112	0x3c	60
113	0x5d	93
114	0xdd	-35
115	0xc8	-56
116	0x68	104
117	0x65	101
118	0xbc	-68
119	0xc0	-64
120	0x2d	45
121	0x7f	127
122	0xa6	-90
123	0xc7	-57
124	0xe9	-23
125	0xd9	-39
126	0x25	37
127	0x3c	60
128	0xe9	-23
129	0x1f	31
130	0xe9	-23
131	0x47	71
132	0x3c	60
133	0x06	6
134	0xed	-19
135	0x03	3
136	0x0e	14
137	0x2a	42
138	0x14	20
139	0x15	21
140	0x07	7
141	0xd3	-45
142	0x5f	95
143	0xed	-19
144	0xe0	-32
145	0xef	-17
146	0xf0	-16
147	0xb7	-73
148	0x2e	46
149	0xf6	-10
150	0xf0	-16
151	0x32	50
152	0x02	2
153	0x33	51
154	0xf8	-8
155	0xe5	-27
156	0x48	72
157	0xfc	-4
158	0xfc	-4
159	0xcb	-53
160	0xfb	-5
161	0x0a	10
162	0xc8	-56
163	0xe2	-30
164	0x12	18
165	0x3b	59
166	0x16	22
167	0x25	37
168	0xf1	-15
169	0xcb	-53
170	0x04	4
171	0x03	3
172	0x13	19
173	0xf2	-14
174	0x1e	30
175	0x3c	60
176	0xc3	-61
177	0xe1	-31
178	0xc9	-55
179	0x13	19
180	0x0e	14
181	0xdd	-35
182	0xe3	-29
183	0x32	50
184	0x1d	29
185	0xe4	-28
186	0xe4	-28
187	0xf5	-11
188	0xba	-70
189	0xf3	-13
190	0x23	35
191	0x05	5
192	0x34	52
193	0x32	50
194	0xd9	-39
195	0xd4	-44
196	0x33	51
197	0xb0	-80
198	0x07	7
199	0x13	19
200	0x43	67
201	0xe1	-31
202	0xee	-18
203	0x2a	42
204	0x29	41
205	0x10	16
206	0x23	35
207	0xf0	-16
208	0x2a	42
209	0xfe	-2
210	0x1e	30
211	0x39	57
212	0xf4	-12
213	0xe3	-29
214	0xcc	-52
215	0xfa	-6
216	0x0d	13
217	0xe1	-31
218	0xff	-1
219	0x1c	28
220	0x27	39
221	0x05	5
222	0x0a	10
223	0x33	51
224	0xf0	-16
225	0x0f	15
226	0x05	5
227	0x2a	42
228	0xb6	-74
229	0xec	-20
230	0x0f	15
231	0x0c	12
232	0xe7	-25
233	0x17	23
234	0xfa	-6
235	0x29	41
236	0xef	-17
237	0x1a	26
238	0xfd	-3
239	0x51	81
240	0xed	-19
241	0x23	35
242	0x47	71
243	0x49	73
244	0x0f	15
245	0xe7	-25
246	0x4b	75
247	0xfc	-4
248	0x24	36
249	0xdc	-36
250	0xe3	-29
251	0x48	72
252	0x48	72
253	0x18	24
254	0xed	-19
255	0x06	6

model/conv2d_14/Conv2D i1 [128, 1, 1, 88]
0	0x1b	27
1	0x03	3
2	0xb5	-75
3	0x4e	78
4	0x0e	14
5	0x16	22
6	0x55	85
7	0x4e	78
8	0xaa	-86
9	0x1c	28
10	0xcb	-53
11	0xf1	-15
12	0x23	35
13	0x07	7
14	0xad	-83
15	0x03	3
16	0xe9	-23
17	0xa6	-90
18	0x4d	77
19	0x34	52
20	0x36	54
21	0x12	18
22	0xf7	-9
23	0x37	55
24	0x16	22
25	0x18	24
26	0xf5	-11
27	0xf0	-16
28	0x0f	15
29	0xd5	-43
30	0xfa	-6
31	0x2c	44
32	0xa9	-87
33	0x49	73
34	0x09	9
35	0x29	41
36	0xff	-1
37	0x09	9
38	0x02	2
39	0xf6	-10
40	0x0e	14
41	0x09	9
42	0xfb	-5
43	0x08	8
44	0x08	8
45	0x05	5
46	0x07	7
47	0x17	23
48	0xfb	-5
49	0xf5	-11
50	0xfc	-4
51	0xcd	-51
52	0x02	2
53	0x0c	12
54	0xd8	-40
55	0x23	35
56	0xd2	-46
57	0xf2	-14
58	0xf5	-11
59	0xfe	-2
60	0x12	18
61	0xe0	-32
62	0xe2	-30
63	0xdd	-35
64	0xe5	-27
65	0x07	7
66	0xe5	-27
67	0x17	23
68	0xe2	-30
69	0xe6	-26
70	0xe6	-26
71	0x17	23
72	0x81	-127
73	0xdf	-33
74	0xda	-38
75	0x07	7
76	0x13	19
77	0x2e	46
78	0x0c	12
79	0xf5	-11
80	0x07	7
81	0x0e	14
82	0x00	0
83	0x31	49
84	0x03	3
85	0x19	25
86	0x0d	13
87	0xba	-70
88	0x08	8
89	0xd4	-44
90	0x04	4
91	0x5b	91
92	0xb0	-80
93	0x48	72
94	0xfe	-2
95	0x08	8
96	0x13	19
97	0xf8	-8
98	0xbc	-68
99	0x15	21
100	0xe4	-28
101	0xdc	-36
102	0xb9	-71
103	0x06	6
104	0x0b	11
105	0xca	-54
106	0xb3	-77
107	0xfd	-3
108	0xc6	-58
109	0x9b	-101
110	0x18	24
111	0x1f	31
112	0x0f	15
113	0xdd	-35
114	0xdb	-37
115	0xf4	-12
116	0x3e	62
117	0x82	-126
118	0x99	-103
119	0xa3	-93
120	0x67	103
121	0xbe	-66
122	0xce	-50
123	0xf5	-11
124	0xe0	-32
125	0x30	48
126	0x0b	11
127	0x57	87
128	0x17	23
129	0x1f	31
130	0xf7	-9
131	0xab	-85
132	0x2a	42
133	0xb5	-75
134	0x34	52
135	0xc8	-56
136	0x14	20
137	0xfe	-2
138	0x28	40
139	0x10	16
140	0xf7	-9
141	0x2a	42
142	0x23	35
143	0xf5	-11
144	0x00	0
145	0x2a	42
146	0x16	22
147	0xc9	-55
148	0xf3	-13
149	0xdc	-36
150	0x10	16
151	0x02	2
152	0xf2	-14
153	0x14	20
154	0xf0	-16
155	0xa8	-88
156	0x05	5
157	0x37	55
158	0xd1	-47
159	0xd4	-44
160	0xbd	-67
161	0x81	-127
162	0x1a	26
163	0x43	67
164	0x4e	78
165	0x50	80
166	0xdc	-36
167	0x24	36
168	0xf3	-13
169	0xe2	-30
170	0x0e	14
171	0xf7	-9
172	0xf1	-15
173	0xdc	-36
174	0xe9	-23
175	0x19	25
176	0xfa	-6
177	0x45	69
178	0xca	-54
179	0xd3	-45
180	0x34	52
181	0xc9	-55
182	0xaa	-86
183	0x4a	74
184	0xa4	-92
185	0xc0	-64
186	0xfa	-6
187	0xdb	-37
188	0xbd	-67
189	0xfa	-6
190	0x29	41
191	0x24	36
192	0xb6	-74
193	0x81	-127
194	0x02	2
195	0xbf	-65
196	0xf7	-9
197	0x15	21
198	0x3b	59
199	0xe3	-29
200	0x15	21
201	0xf3	-13
202	0x24	36
203	0x22	34
204	0xf4	-12
205	0x02	2
206	0x27	39
207	0x02	2
208	0xf5	-11
209	0x17	23
210	0xe8	-24
211	0x1a	26
212	0x15	21
213	0xc8	-56
214	0xfa	-6
215	0x01	1
216	0x25	37
217	0x12	18
218	0x0f	15
219	0x1a	26
220	0x09	9
221	0xc5	-59
222	0x1a	26
223	0xed	-19
224	0x11	17
225	0x21	33
226	0x34	52
227	0x02	2
228	0x40	64
229	0x0f	15
230	0xf1	-15
231	0x1a	26
232	0xbb	-69
233	0xf4	-12
234	0xf2	-14
235	0x03	3
236	0x39	57
237	0xf5	-11
238	0xd2	-46
239	0xee	-18
240	0x09	9
241	0xe5	-27
242	0xf4	-12
243	0x36	54
244	0xff	-1
245	0x0f	15
246	0xe2	-30
247	0xd6	-42
248	0x00	0
249	0x18	24
250	0xf9	-7
251	0xb5	-75
252	0xe8	-24
253	0x08	8
254	0x05	5
255	0xb1	-79

model/conv2d_15/Conv2D i1 [64, 1, 1, 128]
0	0xe0	-32
1	0x18	24
2	0x1b	27
3	0xff	-1
4	0x78	120
5	0xe8	-24
6	0x0d	13
7	0x1f	31
8	0x16	22
9	0x66	102
10	0x7c	124
11	0x29	41
12	0x1d	29
13	0x0e	14
14	0xed	-19
15	0x27	39
16	0x0f	15
17	0x09	9
18	0xef	-17
19	0x12	18
20	0xfa	-6
21	0xf7	-9
22	0x24	36
23	0xe8	-24
24	0x56	86
25	0x04	4
26	0xbc	-68
27	0x36	54
28	0xe4	-28
29	0x04	4
30	0xe9	-23
31	0x18	24
32	0x0a	10
33	0xe8	-24
34	0x0e	14
35	0x14	20
36	0x33	51
37	0x33	51
38	0x72	114
39	0x18	24
40	0x1f	31
41	0x50	80
42	0x0e	14
43	0xed	-19
44	0x0a	10
45	0xec	-20
46	0x17	23
47	0x0e	14
48	0xed	-19
49	0xf6	-10
50	0x11	17
51	0x16	22
52	0x04	4
53	0xfa	-6
54	0xe3	-29
55	0x00	0
56	0xdc	-36
57	0x02	2
58	0x18	24
59	0x17	23
60	0xd1	-47
61	0xfd	-3
62	0xe6	-26
63	0x09	9
64	0xf6	-10
65	0x1c	28
66	0xec	-20
67	0x0d	13
68	0x0c	12
69	0xef	-17
70	0x09	9
71	0x12	18
72	0x05	5
73	0x29	41
74	0x0f	15
75	0xf0	-16
76	0x10	16
77	0x14	20
78	0xf4	-12
79	0xee	-18
80	0x04	4
81	0x04	4
82	0xec	-20
83	0x34	52
84	0x06	6
85	0x26	38
86	0x04	4
87	0xfd	-3
88	0xfb	-5
89	0xd9	-39
90	0xf8	-8
91	0xe7	-25
92	0x12	18
93	0xee	-18
94	0xfa	-6
95	0x03	3
96	0xe8	-24
97	0xc6	-58
98	0x06	6
99	0x0f	15
100	0xfc	-4
101	0xfd	-3
102	0x0c	12
103	0x38	56
104	0xfd	-3
105	0x07	7
106	0x2e	46
107	0x34	52
108	0x03	3
109	0xf3	-13
110	0x7f	127
111	0x17	23
112	0xf3	-13
113	0xf6	-10
114	0x1b	27
115	0x0a	10
116	0xf5	-11
117	0x1a	26
118	0x13	19
119	0xec	-20
120	0x11	17
121	0xdf	-33
122	0x21	33
123	0xeb	-21
124	0xa5	-91
125	0x2d	45
126	0xc8	-56
127	0x03	3
128	0xf3	-13
129	0x34	52
130	0x01	1
131	0x1e	30
132	0xfd	-3
133	0x0f	15
134	0x01	1
135	0xe8	-24
136	0x18	24
137	0xf2	-14
138	0x73	115
139	0xf5	-11
140	0xa6	-90
141	0xcd	-51
142	0x22	34
143	0x05	5
144	0xd9	-39
145	0xfb	-5
146	0xef	-17
147	0xe3	-29
148	0xfc	-4
149	0xde	-34
150	0xfa	-6
151	0x00	0
152	0xfa	-6
153	0x04	4
154	0xcb	-53
155	0xde	-34
156	0x02	2
157	0x0e	14
158	0xf3	-13
159	0xcb	-53
160	0x41	65
161	0x40	64
162	0xe7	-25
163	0x01	1
164	0x0b	11
165	0xf7	-9
166	0xdd	-35
167	0x11	17
168	0xfa	-6
169	0xdf	-33
170	0x34	52
171	0xfb	-5
172	0xec	-20
173	0xdd	-35
174	0xeb	-21
175	0xfe	-2
176	0x02	2
177	0xfb	-5
178	0x07	7
179	0x09	9
180	0xe9	-23
181	0x40	64
182	0xf5	-11
183	0x0f	15
184	0x07	7
185	0x3c	60
186	0x00	0
187	0xfa	-6
188	0xe8	-24
189	0xf2	-14
190	0xe4	-28
191	0xfb	-5
192	0xfe	-2
193	0xd6	-42
194	0xeb	-21
195	0xfd	-3
196	0xe1	-31
197	0x00	0
198	0xc5	-59
199	0x07	7
200	0xf8	-8
201	0x0a	10
202	0x0a	10
203	0x1a	26
204	0xd7	-41
205	0x7f	127
206	0x02	2
207	0x04	4
208	0xfe	-2
209	0x20	32
210	0xec	-20
211	0x14	20
212	0xf9	-7
213	0xe9	-23
214	0xd8	-40
215	0x13	19
216	0x05	5
217	0xd4	-44
218	0xdf	-33
219	0x03	3
220	0xed	-19
221	0x0c	12
222	0x01	1
223	0xec	-20
224	0xf9	-7
225	0xf9	-7
226	0x1a	26
227	0xe1	-31
228	0x0f	15
229	0xe0	-32
230	0xee	-18
231	0x12	18
232	0x11	17
233	0xe3	-29
234	0x24	36
235	0x4d	77
236	0x0f	15
237	0x11	17
238	0xdd	-35
239	0xdd	-35
240	0xfb	-5
241	0x04	4
242	0xfe	-2
243	0xec	-20
244	0x39	57
245	0x19	25
246	0x0d	13
247	0x0a	10
248	0xf6	-10
249	0x07	7
250	0x26	38
251	0xd3	-45
252	0xd4	-44
253	0xf3	-13
254	0x02	2
255	0xea	-22

model/conv2d_16/Conv2D i1 [256, 1, 1, 64]
0	0x0f	15
1	0x66	102
2	0x9e	-98
3	0xbd	-67
4	0xf5	-11
5	0xd1	-47
6	0xa5	-91
7	0xb7	-73
8	0xc4	-60
9	0xcb	-53
10	0xe1	-31
11	0xe1	-31
12	0x1f	31
13	0xcc	-52
14	0x7f	127
15	0xec	-20
16	0xd2	-46
17	0x17	23
18	0x5c	92
19	0x0f	15
20	0xc3	-61
21	0xaf	-81
22	0x05	5
23	0x18	24
24	0x70	112
25	0x7a	122
26	0xa4	-92
27	0x3a	58
28	0x1b	27
29	0x78	120
30	0x6b	107
31	0xbc	-68
32	0x2a	42
33	0xe4	-28
34	0xe8	-24
35	0xca	-54
36	0xee	-18
37	0x11	17
38	0xfc	-4
39	0xdb	-37
40	0xdf	-33
41	0xd2	-46
42	0xcf	-49
43	0xb8	-72
44	0xe7	-25
45	0x00	0
46	0x3b	59
47	0x19	25
48	0xf8	-8
49	0x43	67
50	0xf7	-9
51	0x19	25
52	0x4f	79
53	0x2a	42
54	0x9a	-102
55	0xf3	-13
56	0xd1	-47
57	0x0d	13
58	0xea	-22
59	0x64	100
60	0xf2	-14
61	0xea	-22
62	0x2a	42
63	0xd8	-40
64	0xef	-17
65	0x12	18
66	0x8c	-116
67	0x12	18
68	0x9c	-100
69	0x81	-127
70	0x8e	-114
71	0xed	-19
72	0xe1	-31
73	0x5f	95
74	0x1a	26
75	0x33	51
76	0xfe	-2
77	0xd1	-47
78	0xf7	-9
79	0x8f	-113
80	0x02	2
81	0x08	8
82	0xe5	-27
83	0xf9	-7
84	0xaf	-81
85	0xc2	-62
86	0xe4	-28
87	0x0e	14
88	0xb4	-76
89	0x31	49
90	0x20	32
91	0x1d	29
92	0xc2	-62
93	0xe6	-26
94	0xff	-1
95	0x32	50
96	0xf2	-14
97	0x0d	13
98	0xef	-17
99	0x20	32
100	0x25	37
101	0x76	118
102	0xd1	-47
103	0x04	4
104	0x1d	29
105	0xc8	-56
106	0x6c	108
107	0x5c	92
108	0x12	18
109	0xdb	-37
110	0xef	-17
111	0x05	5
112	0xda	-38
113	0x25	37
114	0x49	73
115	0xd7	-41
116	0x22	34
117	0xea	-22
118	0xd3	-45
119	0x3c	60
120	0x0d	13
121	0x2b	43
122	0xba	-70
123	0xe3	-29
124	0xd9	-39
125	0x06	6
126	0xc2	-62
127	0xae	-82
128	0xef	-17
129	0xf1	-15
130	0x3a	58
131	0xdb	-37
132	0x08	8
133	0x21	33
134	0x04	4
135	0x0c	12
136	0xe2	-30
137	0xf6	-10
138	0x07	7
139	0xca	-54
140	0x81	-127
141	0x01	1
142	0xe5	-27
143	0xec	-20
144	0x34	52
145	0xea	-22
146	0xf2	-14
147	0xd9	-39
148	0x10	16
149	0xed	-19
150	0x08	8
151	0x01	1
152	0xc0	-64
153	0xce	-50
154	0xc7	-57
155	0x17	23
156	0xf5	-11
157	0xd3	-45
158	0xd4	-44
159	0xf8	-8
160	0xa0	-96
161	0x3a	58
162	0xe2	-30
163	0x38	56
164	0x12	18
165	0xf3	-13
166	0x31	49
167	0x4c	76
168	0x58	88
169	0x25	37
170	0xc7	-57
171	0x33	51
172	0xed	-19
173	0xf2	-14
174	0xfb	-5
175	0xcc	-52
176	0xf0	-16
177	0x14	20
178	0xec	-20
179	0x16	22
180	0xb3	-77
181	0xf8	-8
182	0xd8	-40
183	0xfa	-6
184	0x28	40
185	0xbe	-66
186	0xea	-22
187	0x0a	10
188	0x04	4
189	0xcc	-52
190	0x27	39
191	0x18	24
192	0xfa	-6
193	0xdc	-36
194	0x14	20
195	0x11	17
196	0x17	23
197	0x1c	28
198	0xdc	-36
199	0xa0	-96
200	0xe8	-24
201	0xf6	-10
202	0xb2	-78
203	0xf3	-13
204	0x09	9
205	0xe3	-29
206	0x3e	62
207	0x2e	46
208	0x2d	45
209	0xf6	-10
210	0x0c	12
211	0x05	5
212	0x13	19
213	0x6d	109
214	0xde	-34
215	0x04	4
216	0x09	9
217	0xde	-34
218	0x03	3
219	0xf9	-7
220	0xde	-34
221	0xe4	-28
222	0xcd	-51
223	0x30	48
224	0xd5	-43
225	0x3d	61
226	0xf9	-7
227	0x05	5
228	0x12	18
229	0xef	-17
230	0x7f	127
231	0x38	56
232	0xfd	-3
233	0x0d	13
234	0xfc	-4
235	0xfa	-6
236	0x14	20
237	0xe7	-25
238	0xf0	-16
239	0x2a	42
240	0x2f	47
241	0xee	-18
242	0xdb	-37
243	0x31	49
244	0xdb	-37
245	0x26	38
246	0x12	18
247	0x13	19
248	0x19	25
249	0xf6	-10
250	0xff	-1
251	0x0a	10
252	0xd3	-45
253	0xd5	-43
254	0x14	20
255	0x23	35

model/conv2d_17/Conv2D i1 [30, 1, 1, 256]
0	0x17	23
1	0xf7	-9
2	0xfe	-2
3	0xf3	-13
4	0x07	7
5	0xfb	-5
6	0x13	19
7	0x27	39
8	0x0e	14
9	0x04	4
10	0xf5	-11
11	0x3b	59
12	0x22	34
13	0x41	65
14	0xb4	-76
15	0xf9	-7
16	0xa4	-92
17	0xfe	-2
18	0x06	6
19	0xc6	-58
20	0x2c	44
21	0xd9	-39
22	0xf8	-8
23	0x0e	14
24	0x12	18
25	0x0f	15
26	0xe7	-25
27	0xf4	-12
28	0x07	7
29	0xf9	-7
30	0x20	32
31	0x25	37
32	0xf2	-14
33	0x1d	29
34	0xc1	-63
35	0xe3	-29
36	0xe9	-23
37	0x1f	31
38	0x05	5
39	0xf7	-9
40	0xf3	-13
41	0x20	32
42	0x3c	60
43	0xf4	-12
44	0xe2	-30
45	0x39	57
46	0x33	51
47	0xf8	-8
48	0xfa	-6
49	0xd0	-48
50	0xcb	-53
51	0xfb	-5
52	0xf1	-15
53	0x01	1
54	0x47	71
55	0x1e	30
56	0xe7	-25
57	0xfe	-2
58	0xf2	-14
59	0x37	55
60	0xf3	-13
61	0xcf	-49
62	0xf3	-13
63	0x0e	14
64	0x18	24
65	0xfa	-6
66	0x29	41
67	0x25	37
68	0x22	34
69	0xcc	-52
70	0x44	68
71	0xf8	-8
72	0xbc	-68
73	0x04	4
74	0x0c	12
75	0xe0	-32
76	0xab	-85
77	0xfd	-3
78	0x30	48
79	0xed	-19
80	0xb7	-73
81	0x66	102
82	0x27	39
83	0x16	22
84	0xf1	-15
85	0x2c	44
86	0x03	3
87	0xff	-1
88	0xf5	-11
89	0x4a	74
90	0x07	7
91	0x10	16
92	0xf1	-15
93	0xf4	-12
94	0x1c	28
95	0x35	53
96	0xe5	-27
97	0x17	23
98	0xdc	-36
99	0x23	35
100	0x37	55
101	0x68	104
102	0xfa	-6
103	0x16	22
104	0x26	38
105	0x31	49
106	0xdc	-36
107	0xf3	-13
108	0xe1	-31
109	0xe6	-26
110	0xee	-18
111	0xf3	-13
112	0xf0	-16
113	0xfe	-2
114	0x33	51
115	0x05	5
116	0x28	40
117	0xfd	-3
118	0xf8	-8
119	0x04	4
120	0xfa	-6
121	0xf5	-11
122	0x08	8
123	0x01	1
124	0x05	5
125	0xf4	-12
126	0xfb	-5
127	0x0b	11
128	0xd5	-43
129	0xff	-1
130	0x25	37
131	0x1c	28
132	0x16	22
133	0xd3	-45
134	0xb7	-73
135	0xf9	-7
136	0xf5	-11
137	0xf3	-13
138	0x93	-109
139	0x10	16
140	0xef	-17
141	0xfc	-4
142	0x08	8
143	0xfa	-6
144	0xf1	-15
145	0xe8	-24
146	0x38	56
147	0xcd	-51
148	0xf7	-9
149	0x4b	75
150	0x15	21
151	0x27	39
152	0x38	56
153	0xfd	-3
154	0x3a	58
155	0x1a	26
156	0xf8	-8
157	0xd3	-45
158	0xf5	-11
159	0xeb	-21
160	0x02	2
161	0xf4	-12
162	0x1c	28
163	0x2e	46
164	0x24	36
165	0xe0	-32
166	0x13	19
167	0x0b	11
168	0x07	7
169	0x5a	90
170	0xf6	-10
171	0x39	57
172	0x25	37
173	0x3f	63
174	0xd2	-46
175	0x23	35
176	0xe1	-31
177	0x04	4
178	0xf8	-8
179	0xfa	-6
180	0x30	48
181	0x9b	-101
182	0xde	-34
183	0x2d	45
184	0x16	22
185	0xe5	-27
186	0x1c	28
187	0x04	4
188	0x36	54
189	0xfb	-5
190	0x06	6
191	0xda	-38
192	0x02	2
193	0x0d	13
194	0x0a	10
195	0x31	49
196	0x0e	14
197	0xf2	-14
198	0xea	-22
199	0x07	7
200	0x09	9
201	0xff	-1
202	0x00	0
203	0xee	-18
204	0x04	4
205	0xf3	-13
206	0x11	17
207	0xf8	-8
208	0x08	8
209	0xfd	-3
210	0xc6	-58
211	0xc3	-61
212	0x02	2
213	0xdb	-37
214	0xc1	-63
215	0xef	-17
216	0x02	2
217	0x10	16
218	0x0b	11
219	0xea	-22
220	0xfc	-4
221	0xe9	-23
222	0xe4	-28
223	0x81	-127
224	0xfe	-2
225	0xfc	-4
226	0xd7	-41
227	0xbf	-65
228	0xed	-19
229	0xfc	-4
230	0xf5	-11
231	0xe3	-29
232	0x19	25
233	0x0b	11
234	0x12	18
235	0x02	2
236	0xf8	-8
237	0xc0	-64
238	0x41	65
239	0xfc	-4
240	0xd2	-46
241	0xfe	-2
242	0x08	8
243	0x0c	12
244	0xea	-22
245	0xd9	-39
246	0x24	36
247	0xd5	-43
248	0xf0	-16
249	0xe8	-24
250	0xc0	-64
251	0xfa	-6
252	0x13	19
253	0xdf	-33
254	0xa0	-96
255	0xbd	-67

model/batch_normalization_2/FusedBatchNormV3;model/depthwise_conv2d/depthwise;model/conv2d_3/Conv2D i1 [1, 3, 3, 8]
0	0xf8	-8
1	0x9d	-99
2	0x2a	42
3	0x27	39
4	0x23	35
5	0xd3	-45
6	0x14	20
7	0x2a	42
8	0x48	72
9	0xf9	-7
10	0x7d	125
11	0x23	35
12	0x81	-127
13	0x29	41
14	0x4e	78
15	0x27	39
16	0x0a	10
17	0x49	73
18	0x2d	45
19	0x13	19
20	0xd0	-48
21	0x0d	13
22	0x35	53
23	0x0d	13
24	0x7b	123
25	0x81	-127
26	0x12	18
27	0x73	115
28	0x66	102
29	0xa3	-93
30	0x4f	79
31	0x78	120
32	0x3b	59
33	0x63	99
34	0x03	3
35	0x7f	127
36	0x09	9
37	0x11	17
38	0x7f	127
39	0x7f	127
40	0xeb	-21
41	0x51	81
42	0x00	0
43	0x22	34
44	0xba	-70
45	0x7f	127
46	0x3b	59
47	0x1a	26
48	0x7f	127
49	0xe9	-23
50	0xbf	-65
51	0x5b	91
52	0x3f	63
53	0xba	-70
54	0x4f	79
55	0x57	87
56	0xdc	-36
57	0x64	100
58	0x81	-127
59	0x66	102
60	0x4e	78
61	0xf8	-8
62	0x3c	60
63	0x62	98
64	0xef	-17
65	0x0a	10
66	0xd7	-41
67	0x16	22
68	0x0d	13
69	0x74	116
70	0x0d	13
71	0x14	20
